checkpoint_train1.pth (torch, 2943 bytes, 4 tensors)

fc1.weight f4 [32, 6]
00000000: 4755 103d 5ba8 4b3e cd4e 8dbe 5a8e a1be
00000010: 29e5 3ebe 62f3 363e b7ab 83bc 93f7 983e
00000020: 8bc5 7dbc 2c92 c13d 774a cfbd 081f b1bd
00000030: c141 bbbe de7c 8ebe 9bcd 2bbe bdf6 523d
00000040: b23e c83d fb71 2b3e ed9a 1bbe 53d2 36be
00000050: f955 733e a8ef 8e3e 45ef 2fbe bb3c ce3e
00000060: f7fc c83b 3aed 5e3d 5ac3 e73e e1dd e4be
00000070: a0b3 8ebe 97b5 183c fad7 75bb 4a91 9f3e
00000080: 9533 34be e4e1 02be a08d 59be 92c4 06bf
00000090: 16c3 cbbc 2c80 853e 8007 a83e 2ef5 a73e
000000a0: 191b 1b3e ee19 b9be 3e8c 163e 6435 cbbe
000000b0: 1771 88be 0f06 42be 2012 393e c18d 963e
000000c0: d861 06be 5b63 d5bd 6cea 8f3e 074f 073f
000000d0: 4a69 9a3e bc54 91bd 7639 af3e 1cba a5be
000000e0: b844 0b3e 8816 a4be 3739 c7be 7d3c 18bd
000000f0: a7bd 013e bd4a 3a3e 78cd 88be 3dec f23d
00000100: 48a3 243e cef0 86ba 9c5a 8b3d 33c6 453d
00000110: 8be2 8d3e 5482 e13e 0edb 96be 072d 7fbe
00000120: d630 8a3e 57fc 873e c9ea c93e 7ed6 ed3e
00000130: dadf 533e 88ab 02bf b6f3 2a3e 5c57 c3be
00000140: 5275 97be 3a9d f43e 5e9b cb3e 4abe 0bbf
00000150: 6efb 8f3e bee8 3bbe 1f53 863d a385 c33b
00000160: e9e5 a13e b705 e3be b6e3 273e fbfb 613e
00000170: 31e2 a33e 7719 863d 955a 0cbf 44d8 0ebd
00000180: f640 aa3e 5df3 513d 7c59 30be bbc2 9ebe
00000190: 16a5 383e 7e88 003f aee8 cebd adee 1fbe
000001a0: fd0d 9cbe b48a 833c 0c56 79be e82b b7be
000001b0: 137f e43d 5e48 f03c 1f96 0dbd 4ffd 4a3e
000001c0: c6ff a5be 0959 033f cb9f c23e 9864 90be
000001d0: 0698 abba 0f8f 09be d4a8 ddbd 581e 8d3e
000001e0: f298 6e3e 0aaf 2ebd 14a9 28be e3d8 8f3e
000001f0: 2b3d a4be 0bd9 c5be a24c 9ebd 5517 5ebe
00000200: acbd a0bd e2c2 a8be 10d2 a0bd 1f7d da3d
00000210: 86d7 9ebe afa1 3abc 0f5f 6a3e 9316 5abd
00000220: f95b 89bb f106 b5bc e487 fb3d 725d 3e3e
00000230: dc8a cb3e 22b3 bd3e 0b2d 103f c608 47be
00000240: 41d3 babe bc1a 1fbe 5630 763e 54b9 cc3b
00000250: c1f7 6dbe 2f5a aebe 6e02 a7be d8df ccbe
00000260: f297 a7bd 4e4d 973e b901 2e3e e30d c9be
00000270: 3108 4d3e 2c16 90be 2196 c6bd 5ec6 7ebe
00000280: 604f 01be c452 92bb 7280 debe 9c67 a2be
00000290: 5daa b5bd 0094 c33c 3015 e8bd 897e 773d
000002a0: d440 b9be 0195 3b3c 9d5f a63e ed3b 28be
000002b0: 1d5d bd3e d38d 033e cfbf 5ebe bc81 3d3e
000002c0: 8830 1c3d 9141 b9bd 5cfb db3e 056a f2be
000002d0: 6cda e5bc 323b 96bd 6e8c 843e 9592 953d
000002e0: 1eec 573e e5ac e23d afbf c6bd 9888 c0bd
000002f0: 1e07 adbe 3b7c 823e 1b1f b63e 8aca 483e
0.035237577 0.19888441 -0.27599183 -0.31553918 -0.18642105 0.1786628 -0.016073091 0.29876384
-0.015488992 0.09451708 -0.10121625 -0.08648497 -0.36573604 -0.2782964 -0.16777651 0.05150484
0.09777583 0.16742699 -0.15195818 -0.1785367 0.23763265 0.27917218 -0.17181118 0.4028071
0.0061336714 0.054425456 0.4526623 -0.4470053 -0.27871418 0.009320638 -0.0037512765 0.31165534
-0.17597802 -0.12781483 -0.21245432 -0.5264369 -0.024873298 0.2607435 0.32818222 0.32804245
0.15147056 -0.36152595 0.14701936 -0.3968917 -0.2664878 -0.18947624 0.1807332 0.29405025
-0.13123262 -0.10419341 0.28108537 0.5285496 0.30158454 -0.0709624 0.34223527 -0.32368553
0.13600433 -0.3204844 -0.3891084 -0.03716706 0.12670003 0.18192573 -0.2671926 0.11861465
0.16077912 -0.0010295154 0.06804392 0.04828472 0.277119 0.44044745 -0.29464 -0.2491952
0.26990384 0.26559708 0.3943694 0.46452707 0.20690861 -0.51042986 0.16694531 -0.38152587
-0.29581696 0.47776204 0.39766973 -0.54587233 0.28121513 -0.18350503 0.06558823 0.0059668585
0.3162072 -0.44340298 0.16395459 0.22068779 0.32008508 0.06547826 -0.5482572 -0.034874216
0.33252686 0.05125748 -0.17221636 -0.31007943 0.18031725 0.5020827 -0.10102974 -0.15618391
-0.30479422 0.01605735 -0.2434923 -0.35775685 0.1115705 0.029331382 -0.034566995 0.19823192
-0.32421702 0.5130773 0.38012537 -0.28201747 -0.0013091571 -0.13433479 -0.10823217 0.27562213
0.23300532 -0.0426474 -0.16470748 0.2809516 -0.32077917 -0.38642153 -0.0772946 -0.21688588
-0.07848677 -0.32961184 -0.07852566 0.10668396 -0.31023806 -0.011391087 0.22887824 -0.053244185
-0.004191872 -0.022098036 0.122817785 0.18590334 0.3975438 0.3705073 0.5631873 -0.1943694
-0.364893 -0.15537542 0.24041876 0.006247679 -0.23239042 -0.3405318 -0.3261904 -0.4001453
-0.08183278 0.29551166 0.16992845 -0.39268407 0.20022656 -0.28141916 -0.096966036 -0.24880359
-0.12627935 -0.004465433 -0.4345737 -0.31719673 -0.08870385 0.023874283 -0.11332166 0.060423408
-0.36182272 0.0114490995 0.32494822 -0.1642911 0.36985102 0.1284707 -0.21752857 0.18506521
0.03813222 -0.09045709 0.4296521 -0.4734651 -0.028058253 -0.07335509 0.2588839 0.07303349
0.21086165 0.11068133 -0.097045295 -0.09401053 -0.33794492 0.25485405 0.35570607 0.19608513

fc1.bias f4 [32]
00000000: 1f44 62be 577f a0bc c7db b6be 3a8f d1bd
00000010: 5dce 40be 97e7 9a3e e107 21bd 4481 8e3d
00000020: a088 9c3d 490c ac3e 75b0 bbbe 409e 5cbe
00000030: e901 eabd bd96 d53e 4a19 963d 4c7e b73e
00000040: 05b8 8b3e ed4a 893d 95aa f03d 9599 1abc
00000050: 54a6 103e 193f a8bd 891b 82bd f158 d93d
00000060: 60ea 9abe bc11 61be 4658 893e 155a cabe
00000070: 9936 80bd 30bd 123f 6ccd ab3d b08a aebc
-0.22096299 -0.01959197 -0.35714552 -0.102323964 -0.18828721 0.30254814 -0.039314155 0.06958249
0.07643247 0.33603123 -0.36658064 -0.21544743 -0.114261456 0.41716567 0.07329042 0.35838544
0.27288833 0.06703744 0.11751286 -0.009436031 0.14125949 -0.0821516 -0.06352908 0.10612667
-0.3025694 -0.21979421 0.2682516 -0.39521852 -0.06260414 0.5731993 0.083887905 -0.021306366

fc2.weight f4 [3, 32]
00000000: 8a95 7dbd 672b f63c e920 d0bd 0634 9b3d
00000010: aafd 203d 1e46 d8bd b569 c4bd c1b1 5e3e
00000020: 4027 b9bd e66e 663e a44c ce3d 12aa 1cbe
00000030: f7be d0bc 9778 6cbe 56ea 35be 6473 e13d
00000040: 5a0f 403e 2811 713d aa9a ae3d ef7e 2f3e
00000050: 9a6a a63c 65d9 3ebd f9de f43c 64e3 6fbe
00000060: aad9 57bd ac96 cfbd 65d6 bebc cfe9 b53d
00000070: 97d4 db3d 5f48 10be a5c4 6bbd 33cd 1abd
00000080: 8f7d 84be c2c7 d43d 03e0 edbd be5f 72be
00000090: 8f51 53be ee95 523e ee15 753e d2de 853d
000000a0: e710 803e 4d29 b3bd 8caa 243c da14 f13d
000000b0: 7fb4 9b3e c415 593e 5d66 b53d 31b9 debd
000000c0: 1b79 9ebe 147c d53d 0b0d 76be bcb9 a2be
000000d0: 0597 803e 0e89 58be 8170 a53c fe5d 523e
000000e0: 4f0b 8f3d 19ab 02bd 21ad 0cbe 3443 9e3d
000000f0: b299 343d c588 903e 4d30 4fbd 38c2 593d
00000100: 4d65 8fbd 5a42 1a3d 72b3 dcbd ad5a 093c
00000110: e657 3f3d b685 13bd 9d1c 02be cee7 fcbd
00000120: 8c51 cc3c 39bb 2cbe bd6e 853b c469 b1bd
00000130: 85c1 38be 405b 92bd cbaf 53be 768b 453c
00000140: bac9 a53b 4a8c eebd f697 83bc 701e 243c
00000150: 32d1 233d fa37 9cbd 9f31 c9bd d8ab 0abe
00000160: f092 2a3d e8ce d7bd 4309 84bb 6688 c43d
00000170: de37 75bd 39cc a0bd 9816 c03c 1a61 02bb
-0.06191019 0.030049993 -0.10162527 0.07578282 0.039304413 -0.10560249 -0.095904745 0.21747495
-0.090406895 0.22503242 0.10073212 -0.15299252 -0.025481684 -0.23092876 -0.17765173 0.11008337
0.18755856 0.058854252 0.085255936 0.17138265 0.020314503 -0.046594042 0.029891478 -0.23426586
-0.052697815 -0.1013616 -0.02329559 0.08882486 0.10733908 -0.14090107 -0.05756058 -0.03779335
-0.25877044 0.10389663 -0.116149925 -0.23669335 -0.20636581 0.20565006 0.23934147 0.0653664
0.25012895 -0.08748112 0.010050427 0.11771555 0.30411145 0.21199709 0.08857415 -0.10875166
-0.3095177 0.10424057 -0.24028413 -0.3178233 0.2511522 -0.21146032 0.020195248 0.20543668
0.06984579 -0.031901453 -0.13737918 0.07727662 0.044091888 0.28229347 -0.050583173 0.053163737
-0.070017435 0.037660934 -0.10776414 0.008383435 0.046714686 -0.03601619 -0.12706228 -0.12348901
0.024941228 -0.16868295 0.004072039 -0.08662751 -0.18042572 -0.07146311 -0.20672528 0.012057176
0.005059448 -0.11647852 -0.016063672 0.0100170225 0.039994426 -0.07627864 -0.098239176 -0.13542116
0.041644037 -0.10537511 -0.0040294244 0.095963284 -0.059867732 -0.078514524 0.023448274 -0.0019894303

fc2.bias f4 [3]
00000000: 0bb2 8d3d c8c1 043d 7aba 4abe
0.069187246 0.032411367 -0.19797698
