checkpoint.pth (torch, 3027 bytes, 4 tensors)

fc1.weight f4 [32, 6]
0.0030854011 0.20834501 -0.31382135 -0.31631735 -0.16257705 0.108502336 0.0150156915 0.3579437
-0.028144158 0.08426769 -0.2226333 0.050793365 -0.40446782 -0.3305167 -0.21026877 0.091311716
0.18650652 0.22686292 -0.2595864 -0.18480314 0.17322381 0.32720768 -0.09419557 0.31098634
-0.015467268 0.061644867 0.4198931 -0.41448313 -0.29028034 -0.06584768 -0.099717066 0.3274908
-0.20726202 -0.1467802 -0.20794986 -0.46786037 -0.13606209 0.31080735 0.26001734 0.26554832
0.112005286 -0.3006243 0.0495294 -0.37655434 -0.35282263 -0.20275237 0.24954832 0.2638842
-0.12552267 -0.037197288 0.31687367 0.40507314 0.25830287 -0.053413026 0.27021912 -0.18820223
0.06272307 -0.36141026 -0.38358817 -0.103287816 0.14790517 0.16832563 -0.2520402 0.11649928
0.17541568 -0.017295282 0.035388015 0.06366272 0.2678337 0.4288938 -0.26431534 -0.20826228
0.17267881 0.28589922 0.3552836 0.41694042 0.16767766 -0.41662863 0.14684863 -0.30272356
-0.28330302 0.4036373 0.41137075 -0.50041604 0.21108302 -0.15059505 0.047369793 -0.107882954
0.28655964 -0.36253685 0.17022969 0.24548496 0.31083068 0.09640643 -0.50028557 -0.16326898
0.26066026 0.15171275 -0.2551605 -0.30120036 0.27093923 0.36242887 -0.15184818 -0.10825175
-0.40702966 0.008942195 -0.2904217 -0.32026365 0.065804705 0.07682809 -0.075179614 0.20689073
-0.307537 0.4086499 0.3176157 -0.2946134 -0.053111747 -0.0473214 -0.02395829 0.15001369
0.1795263 -0.024172533 -0.19415899 0.23928209 -0.32302463 -0.31052288 -0.12640092 -0.21507011
-0.15300639 -0.31916785 -0.05769433 0.043567523 -0.28768963 -0.009336947 0.27396 -0.023703815
-0.033855475 0.0005656686 0.10577813 0.19151178 0.40017858 0.31184703 0.5105394 -0.1406952
-0.25063193 -0.16560054 0.3981027 -0.03079704 -0.13820629 -0.39520887 -0.41657668 -0.34051585
-0.11102373 0.22892466 0.18761224 -0.35458717 0.27141017 -0.3117116 -0.052127365 -0.19427216
-0.1014568 -0.056115426 -0.396775 -0.36269727 -0.09237803 0.015285818 -0.14112262 0.10423212
-0.37976208 -0.0020217416 0.34688866 -0.15088864 0.32260844 0.20706837 -0.2734858 0.18410376
0.029628195 -0.1102652 0.43261755 -0.42390192 0.060719393 -0.10156843 0.31265485 0.101399705
0.23188452 0.09756512 -0.08998374 -0.14242664 -0.36574063 0.2647105 0.4042822 0.21982133
00000000: 7134 4a3b 6558 553e 31ad a0be 59f4 a1be
00000010: 997a 26be 7936 de3d 6004 763c 6644 b73e
00000020: 948e e6bc 8a94 ac3d fcf9 63be b40c 503d
00000030: 6816 cfbe 7c39 a9be b250 57be a301 bb3d
00000040: 91fb 3e3e c14e 683e 82e8 84be 093d 3dbe
00000050: 9561 313e c487 a73e 9be9 c0bd 9a39 9f3e
00000060: 6d6a 7dbc 547f 7c3d 3afc d63e 2237 d4be
00000070: a09f 94be 26db 86bd 7638 ccbd e0ac a73e
00000080: 7f3c 54be 8c4d 16be cff0 54be 658b efbe
00000090: dc53 0bbe 2422 9f3e fe20 853e f3f5 873e
000000a0: 0763 e53d 6eeb 99be 57df 4a3d bbcb c0be
000000b0: 2ba5 b4be 519e 4fbe 9889 7f3e d41b 873e
000000c0: 0489 00be 2f5c 18bd 443d a23e bf65 cf3e
000000d0: 4640 843e 9ec7 5abd 295a 8a3e 16b8 40be
000000e0: f474 803d c40a b9be ab65 c4be 9088 d3bd
000000f0: 7474 173e 8e5d 2c3e 6a0b 81be 2d97 ee3d
00000100: 2ba0 333e d6ae 8dbc 06f3 103d 9a61 823d
00000110: 8021 893e f897 db3e 5754 87be b542 55be
00000120: b7d2 303e 6261 923e bbe7 b53e 3779 d53e
00000130: b1b3 2b3e 5950 d5be 7d5f 163e 95fe 9abe
00000140: 180d 91be 8ca9 ce3e 309f d23e 441b 00bf
00000150: 2626 583e 9735 1abe d406 423d bdf1 dcbd
00000160: f2b7 923e 6e9e b9be b150 2e3e 6960 7b3e
00000170: 3325 9f3e bc70 c53d b712 00bf fc2f 27be
00000180: 4375 853e 965a 1b3e 66a4 82be ef36 9abe
00000190: 8cb8 8a3e 4790 b93e 177e 1bbe 18b3 ddbd
000001a0: 3166 d0be 4982 123c 27b2 94be 99f9 a3be
000001b0: 9ec4 863d 0c58 9d3d c5f7 99bd 2adb 533e
000001c0: 7d75 9dbe 8f3a d13e 869e a23e 91d7 96be
000001d0: b48b 59bd 16d4 41bd 2d44 c4bc 309d 193e
000001e0: bed5 373e 7a05 c6bc 9dd1 46be 5d06 753e
000001f0: 7c63 a5be dbfc 9ebe 3e6f 01be 573b 5cbe
00000200: b5ad 1cbe f869 a3be e450 6cbd dc73 323d
00000210: 0e4c 93be fff9 18bc 7c44 8c3e 812e c2bc
00000220: 0aac 0abd 6149 143a 34a2 d83d aa1b 443e
00000230: 35e4 cc3e 6aaa 9f3e b6b2 023f 6712 10be
00000240: d452 80be 3093 29be 1ed4 cb3e 134a fcbc
00000250: f385 0dbe d158 cabe 8a49 d5be 1858 aebe
00000260: 6960 e3bd 3a6b 6a3e 6c1d 403e 738c b5be
00000270: 46f6 8a3e aa98 9fbe 8183 55bd 48ef 46be
00000280: 95c8 cfbd 4ad9 65bd 1826 cbbe 75b3 b9be
00000290: b130 bdbd 5e71 7a3c 7382 10be a677 d53d
000002a0: 2d70 c2be 327f 04bb 649b b13e 8d82 1abe
000002b0: ef2c a53e bb09 543e 5506 8cbe b285 3c3e
000002c0: d4b6 f23c b9d2 e1bd 0c80 dd3e ac09 d9be
000002d0: e6b4 783d 1c03 d0bd 4c14 a03e a6aa cf3d
000002e0: 2373 6d3e 39d0 c73d 6549 b8bd 4ad8 11be
000002f0: 5b42 bbbe 2288 873e 14fe ce3e d818 613e

fc1.bias f4 [32]
-0.29203582 0.056257576 -0.24600539 -0.2166648 -0.18602628 0.19375478 -0.1298455 0.0030552759
0.0826514 0.26592812 -0.34919906 -0.253762 -0.21959172 0.39607996 -0.017165475 0.3638771
0.20225662 0.08957901 0.071014985 -0.05409468 0.07581137 -0.13579357 -0.026286686 0.080737494
-0.19042929 -0.24778084 0.33569893 -0.36305836 -0.03233063 0.5002075 0.15648694 0.035840172
00000000: b885 95be 586e 663d d6e8 7bbe 61dd 5dbe
00000010: ac7d 3ebe a767 463e 38f6 04be 063b 483b
00000020: 2345 a93d bb27 883e 38ca b2be 18ed 81be
00000030: a7dc 60be feca ca3e 9c9e 8cbc 194e ba3e
00000040: 5c1c 4f3e 3375 b73d 4e70 913d 6292 5dbd
00000050: fe42 9b3d 780d 0bbe 2d57 d7bc b359 a53d
00000060: e5ff 42be 43ba 7dbe bbe0 ab3e c9e2 b9be
00000070: 1f6d 04bd 990d 003f 1d3e 203e 25cd 123d

fc2.weight f4 [3, 32]
-0.08162749 0.19499102 -0.1036777 0.020263055 0.0028745048 -0.06853061 -0.09731589 0.16477554
-0.06332235 0.17919695 0.07191476 -0.13357528 -0.019984435 -0.21789901 -0.18105751 0.06588388
0.13245098 0.11529071 0.038810924 0.045922227 0.06009361 -0.12718181 0.112601005 -0.23025748
-0.06262588 -0.08185146 -0.09961028 0.06579333 0.12899224 -0.13690715 -0.121532045 -0.067817286
-0.21801056 -0.00896159 -0.07014259 -0.1466263 -0.17005149 0.14793825 0.17918271 0.15146175
0.15710667 -0.098833285 0.007309259 0.062415287 0.22923245 0.15060195 0.017769022 -0.11370601
-0.2154263 0.069777265 -0.1593197 -0.19915602 0.19320674 -0.13812588 -0.016272025 0.1228526
0.05118121 -0.059443574 -0.14894593 0.13264519 0.048116535 0.2353108 -0.05654611 0.099483594
-0.08340769 -0.03693957 -0.1552071 0.02352195 0.061922 -0.009929446 -0.05081067 -0.15298867
0.105389744 -0.11211346 0.03982124 -0.042856123 -0.08442703 0.0071108914 -0.10244782 0.056440037
-0.0064512794 -0.14518324 -0.012217485 0.063921206 0.06625614 -0.045206785 -0.12975712 -0.024110543
0.070908636 -0.08157637 0.07796367 0.08933006 -0.104833305 -0.009623276 0.08138088 -0.040700633
00000000: 502c a7bd baab 473e f954 d4bd b5fe a53c
00000010: 3062 3c3b c759 8cbd 8e4d c7bd ebba 283e
00000020: 26af 81bd 687f 373e 0c48 933d f5c7 08be
00000030: 66b6 a3bc eb20 5fbe 2467 39be 21ee 863d
00000040: 3ba1 073e 891d ec3d 34f8 1e3d f218 3c3d
00000050: b824 763d f33b 02be 5b9b e63d 9ec8 6bbe
00000060: ff41 80bd bda1 a7bd 7900 ccbd a7be 863d
00000070: 8b16 043e 6331 0cbe cbe5 f8bd cae3 8abd
00000080: 293e 5fbe a2d3 12bc eba6 8fbd 3425 16be
00000090: fa21 2ebe 207d 173e ac7b 373e ca18 1b3e
000000a0: 92e0 203e 1b69 cabd 8282 ef3b 2ca7 7f3d
000000b0: e9bb 6a3e 6637 1a3e 5790 913c b2de e8bd
000000c0: b698 5cbe 62e7 8e3d b424 23be 8eef 4bbe
000000d0: fdd7 453e df70 0dbe e94c 85bc 259a fb3d
000000e0: 63a3 513d 1b7b 73bd 4885 18be 24d4 073e
000000f0: d815 453d 50f5 703e e59c 67bd 0ebe cb3d
00000100: a7d1 aabd f24d 17bd 9cee 1ebe 1bb1 c03c
00000110: eca1 7d3d 1daf 22bc d91e 50bd 10a9 1cbe
00000120: 94d6 d73d be9b e5bd 991b 233d e789 2fbd
00000130: 14e8 acbd 7b02 e93b 2ad0 d1bd ab2d 673d
00000140: 4165 d3bb eaaa 14be d92b 48bc 1fe9 823d
00000150: 4db1 873d c02a 39bd 0ddf 04be 7983 c5bc
00000160: 8c38 913d 8311 a7bd 6bab 9f3d aef2 b63d
00000170: d8b2 d6bd f2aa 1dbc 05ab a63d b5b5 26bd

fc2.bias f4 [3]
0.02109977 0.01154034 -0.13773237
00000000: 6dd9 ac3c b213 3d3c b709 0dbe
