checkpoint_train2.pth (torch, 2939 bytes, 4 tensors)

fc1.weight f4 [32, 6]
-0.057815824 0.17191012 -0.38958448 -0.21091779 -0.1586561 0.1217807 -0.0677265 0.28245893
-0.039611727 0.14944506 -0.05290644 -0.09132015 -0.4677832 -0.31218883 -0.2222157 0.024147872
0.15546864 0.25122538 -0.22061361 -0.20292526 0.16419163 0.34501895 -0.18290518 0.41262922
-0.06610747 0.026955284 0.36183918 -0.37504607 -0.31913224 -0.035662115 -0.016279975 0.36989483
-0.14026757 -0.21280734 -0.12440071 -0.53728765 -0.046971012 0.37688154 0.34578064 0.2116447
0.24829645 -0.39026418 0.10242757 -0.39927998 -0.25673786 -0.26942775 0.11408168 0.3620434
-0.07149243 -0.0058662915 0.3542446 0.435483 0.3144282 -0.062416315 0.28638986 -0.27230853
0.09264929 -0.35217014 -0.5064072 0.03723484 0.13630092 0.16297881 -0.23754351 0.12266731
0.13188495 -0.0009194495 0.11111308 -0.024234973 0.36509335 0.5196428 -0.106262766 -0.23557337
0.26729187 0.31288952 0.44272935 0.41902024 0.2734465 -0.5078338 0.21603611 -0.26484457
-0.22739229 0.41023475 0.55595875 -0.54896545 0.22194472 -0.07558946 0.042610187 -0.1190341
0.43181255 -0.45855275 0.12357888 0.18918271 0.2603837 0.13157779 -0.6333132 -0.038439196
0.20532146 0.058434196 -0.29492262 -0.2550747 0.1794685 0.4979639 -0.21008673 -0.14251533
-0.42178586 -0.023887742 -0.26467374 -0.33914575 0.02755636 0.030015048 -0.139399 0.27456337
-0.35303578 0.4969755 0.2708302 -0.33404997 -0.1140224 -0.034758814 -0.09994688 0.23027122
0.22080578 -0.00096610736 -0.12348996 0.23328172 -0.17705025 -0.40784344 -0.13513352 -0.21165942
-0.16014048 -0.29828748 -0.03158983 0.05751115 -0.21909122 -0.07401979 0.34241885 -0.08957668
-0.2049858 0.2353007 0.17966242 0.20859116 0.44972575 0.34574476 0.6000693 -0.22210917
-0.15888342 -0.08974444 0.46709695 -0.042327672 -0.05522219 -0.45806813 -0.3474326 -0.3617979
-0.014588514 0.2751975 0.32894778 -0.42913195 0.18304029 -0.28976062 -0.16455333 -0.1698233
-0.12811595 -0.0554604 -0.37567824 -0.45779505 -0.119765535 0.08248732 -0.17719623 0.20432548
-0.35626248 -0.07836594 0.36947292 -0.20249926 0.24926515 0.26313388 -0.21870685 0.1866077
0.06670865 -0.09915478 0.5670012 -0.50623614 0.012053522 -0.044367403 0.24988304 0.109988116
0.25666326 0.07537273 -0.0687851 -0.0538325 -0.34292313 0.20635483 0.43674397 0.15860271
00000000: 49d0 6cbd 3509 303e 9e77 c7be d5fa 57be
00000010: bf76 22be 2968 f93d 31b4 8abd 759e 903e
00000020: e83f 22bd 2008 193e 6cb4 58bd 0f06 bbbd
00000030: 4881 efbe 37d7 9fbe 838c 63be c2d1 c53c
00000040: 2c33 1f3e 9da0 803e 89e8 61be a4cb 4fbe
00000050: da21 283e 53a6 b03e 7f4b 3bbe 2344 d33e
00000060: 5a63 87bd 54d1 dc3c fc42 b93e 0a06 c0be
00000070: 4d65 a3be 7012 12bd 955d 85bc db62 bd3e
00000080: 4da2 0fbe 2bea 59be cdc5 febd af8b 09bf
00000090: ad64 40bd 9ef6 c03e 290a b13e 63b9 583e
000000a0: 6d41 7e3e b5d0 c7be 8cc5 d13d 6d6e ccbe
000000b0: 2573 83be 6ff2 89be a8a3 e93d c15d b93e
000000c0: a06a 92bd 053a c0bb 8c5f b53e a1f7 de3e
000000d0: bcfc a03e 40a8 7fbd b1a1 923e 066c 8bbe
000000e0: e9be bd3d a54f b4be e7a3 01bf 8f83 183d
000000f0: 7892 0b3e ebe3 263e 9b3e 73be 0039 fb3d
00000100: d90c 073e 3607 71ba 418f e33d 6c88 c6bc
00000110: 84ed ba3e 4f07 053f 4ba0 d9bd 253a 71be
00000120: 7bda 883e 0e33 a03e 6cad e23e d289 d63e
00000130: 2e01 8c3e 6501 02bf 9238 5d3e b599 87be
00000140: 86d9 68be 4a0a d23e 5053 0e3f 0089 0cbf
00000150: 7a45 633e a6ce 9abd 0588 2e3d 26c8 f3bd
00000160: 8916 dd3e 6dc7 eabe ed16 fd3d 1db9 413e
00000170: 0351 853e 54bc 063e d020 22bf 6b72 1dbd
00000180: ca3f 523e b258 6f3d 1900 97be 2799 82be
00000190: 97c6 373e 20f5 fe3e fa20 57be 8aef 11be
000001a0: 51f4 d7be 3ab0 c3bc 5183 87be 83a4 adbe
000001b0: e0bd e13c 1ee2 f53c 9dbe 0ebe 9293 8c3e
000001c0: 1bc1 b4be 9373 fe3e 42aa 8a3e 9908 abbe
000001d0: 9384 e9bd 425f 0ebd f3b0 ccbd 38cc 6b3e
000001e0: e91a 623e 5e42 7dba 4ee8 fcbd 67e1 6e3e
000001f0: a94c 35be dbd0 d0be 7160 0abe 3fbd 58be
00000200: defb 23be 23b9 98be 5664 01bd d090 6b3d
00000210: 7359 60be b097 97bd 8651 af3e fa73 b7bd
00000220: cce7 51be abf2 703e 6df9 373e ec98 553e
00000230: 7442 e63e 7505 b13e 249e 193f 9670 63be
00000240: 56b2 22be efcb b7bd 5527 ef3e c85f 2dbd
00000250: aa30 62bd e887 eabe b0e2 b1be 933d b9be
00000260: aa04 6fbc b0e6 8c3e d86b a83e 2fb7 dbbe
00000270: ea6e 3b3e 815b 94be ab80 28be 29e6 2dbe
00000280: d430 03be 722a 63bd e658 c0be 1d64 eabe
00000290: a247 f5bd 1def a83d ee72 35be b33a 513e
000002a0: 0968 b6be 527e a0bd 8e2b bd3e f75b 4fbe
000002b0: 5d3f 7f3e 7cb9 863e b0f4 5fbe 1716 3f3e
000002c0: 8b9e 883d a911 cbbd fe26 113f b198 01bf
000002d0: 237c 453c 98ba 35bd 57e1 7f3e 7341 e13d
000002e0: 5e69 833e 055d 9a3d 34df 8cbd 787f 5cbd
000002f0: 9f93 afbe ae4e 533e e89c df3e c068 223e

fc1.bias f4 [32]
-0.32105938 -0.03720133 -0.24200054 -0.1283703 -0.2549585 0.29482248 -0.03804505 0.0744738
0.09010005 0.29623485 -0.37718624 -0.18488882 -0.11291924 0.47980943 0.034648824 0.32711482
0.17090403 0.07043737 0.09661531 -0.07949469 0.12762958 -0.14472437 0.086283065 0.15840526
-0.07652327 -0.15259624 0.24348772 -0.27889985 0.035918023 0.57552195 0.09435221 -0.0187299
00000000: e561 a4be 6c60 18bd fdce 77be 8173 03be
00000010: ec89 82be f9f2 963e 20d5 1bbd b885 983d
00000020: 6086 b83d 18ac 973e 8e1e c1be 7f53 3dbe
00000030: 3442 e7bd 95a9 f53e edeb 0d3d 987b a73e
00000040: 7701 2f3e 7841 903d 3fde c53d 1dce a2bd
00000050: 54b1 023e a032 14be 2db5 b03d fd34 223e
00000060: 3bb8 9cbd 3042 1cbe d854 793e f6cb 8ebe
00000070: c71e 133d 6855 133f bb3b c13d 726f 99bc

fc2.weight f4 [3, 32]
-0.067019925 0.078381374 -0.034638878 0.13239479 0.05910929 -0.11176996 -0.14927833 0.28393692
-0.09671411 0.2444443 0.02643672 -0.18591124 -0.07259793 -0.29670674 -0.23408924 0.124878585
0.21197909 0.1194859 0.13443092 0.16044576 0.042738356 -0.064025454 0.40465724 -0.30327266
-0.041750174 -0.10055249 -0.06238451 0.2298646 0.21423717 -0.19263282 -0.09295153 -0.018728878
-0.20622246 0.078999706 -0.10642462 -0.21859205 -0.14177567 0.221298 0.30528232 0.10939967
0.23336731 -0.074550524 0.04566172 0.13431326 0.32999173 0.25658718 0.1261009 -0.08949374
-0.22174722 0.08934021 -0.21092458 -0.23498398 0.24094161 -0.13529581 -0.12373185 0.24419603
0.14399154 0.021141337 -0.10093529 0.05851177 0.054263182 0.34350166 0.0041743508 0.072919644
-0.07708213 0.0045748316 -0.16586798 -0.03949382 -0.030861272 -0.05956492 -0.15400515 -0.21626826
0.053251017 -0.20881747 0.052039005 -0.07259046 -0.16458404 -0.06022167 -0.19046377 -0.028626613
-0.06410076 -0.16707806 -0.066053405 -0.017992374 0.029319182 -0.08843139 -0.35083383 -0.10100896
-0.06359605 -0.15967117 -0.0069984687 -0.015736034 -0.16809088 -0.08998468 0.0032491519 -0.030723222
00000000: be41 89bd 6a86 a03d 7fe1 0dbd 8092 073e
00000010: 951c 723d a6e7 e4bd 6bdc 18be 2e60 913e
00000020: 0c12 c6bd 9b4f 7a3e d291 d83c 845f 3ebe
00000030: 39ae 94bd f2e9 97be 17b5 6fbe 58c0 ff3d
00000040: 0c11 593e 06b5 f43d 42a8 093e e54b 243e
00000050: 6a0e 2f3d c71f 83bd 3c2f cf3e 8e46 9bbe
00000060: 3b02 2bbd 77ee cdbd e686 7fbd a061 6b3e
00000070: fd60 5b3e 8a41 45be 5f5d bebd 4e6d 99bc
00000080: fb2b 53be 99ca a13d 27f5 d9bd 98d6 5fbe
00000090: a42d 11be f19b 623e f74d 9c3e ef0c e03d
000000a0: d7f7 6e3e f2ad 98bd c907 3b3d 6a89 093e
000000b0: adf4 a83e 655f 833e 9820 013e 7e48 b7bd
000000c0: b411 63be 00f8 b63d 9dfc 57be a49f 70be
000000d0: 66b9 763e fc8a 0abe 2067 fdbd 860e 7a3e
000000e0: 8572 133e 9930 ad3c 29b7 cebd 0aaa 6f3d
000000f0: 1243 5e3d 73df af3e fec8 883b e556 953d
00000100: 3cdd 9dbd 78e8 953b 4cd9 29be 46c4 21bd
00000110: c7d0 fcbc 58fa 73bd 87b3 1dbe 6d75 5dbe
00000120: bd1d 5a3d 3fd4 55be da26 553d 4faa 94bd
00000130: b888 28be ffaa 76bd ef08 43be 5c82 eabc
00000140: 4247 83bd 8316 2bbe 0247 87bd be64 93bc
00000150: c82e f03c 841b b5bd 7ea0 b3be c9dd cebd
00000160: a53e 82bd d780 23be 6953 e5bb dbe8 80bc
00000170: 0420 2cbe e349 b8bd b9ef 543b 44af fbbc

fc2.bias f4 [3]
0.04368712 0.07432344 -0.22330493
00000000: 44f1 323d e336 983d 0caa 64be
