checkpoint_64.pth (torch, 4219 bytes, 4 tensors)

fc1.weight f4 [64, 6]
00000000: 0f7b f43d f85c 833e ef4e 80be 0f6d b4be
00000010: 1fe4 aabe 4b2e 783e 52fc a03d 856d b43e
00000020: be7e 273d 278b 8e3d be35 473d 091d 89be
00000030: de11 89be 8271 99be 7a39 b9bd 0670 393d
00000040: a5ee 743d 7c34 bf3e 0380 78be a549 14be
00000050: 71ae 233e 1c17 a03e 2b9d 17be c717 c83e
00000060: 7b42 f9bc dd77 463e 6e83 b73e 41c0 04bf
00000070: be31 d5be d288 87ba 1ca9 4cbd ac83 fb3e
00000080: ada5 54be cdf8 aebe 0d87 92be 46ee ddbe
00000090: d74c ebbd a416 c23e 5d8c 9c3e c823 1c3e
000000a0: d0b9 2b3e 0031 c3be a580 0b3e 5b62 cbbe
000000b0: 5875 89be 2a17 44be 8dbb 443e 7f7f 9d3e
000000c0: 5a78 46bd 8961 993b 0511 c23e 8fc8 d03e
000000d0: 36e6 9d3e ee4f fdbd 69ae a43e 97ef 83bd
000000e0: fd62 983d 0c8b f0be ae16 e0be baa6 9cbd
000000f0: 8781 c53e c230 2e3e 8a8a aabd 525d f63d
00000100: 0320 c53e bef5 5ebe f00d 2abd 5a63 553d
00000110: 574d 483e 77ed d53e 9296 b6be daf4 aabd
00000120: 5146 e63d 4f2a 953e 3a58 ae3e 35db c43e
00000130: bc03 f03d 7502 d8be 2731 4b3d 9118 73be
00000140: ab4f aabe f716 a73e c11a 973e 3797 dbbe
00000150: 63c3 6a3e e7dc 8bbc bc2b 673d 9dfd 6fbe
00000160: ab58 993e d7b7 d8be d7be 4c3e c0d7 8d3e
00000170: 23a7 b33e 0d4a e63d 79bc 77be 0109 edbe
00000180: 84db 9b3e e368 263e f7ff 95be 96c4 a9be
00000190: 7384 b93e 8395 863e f85c 51be 0449 0dbe
000001a0: b823 cdbe 49fb 173d ff16 b8be 7c7b 81be
000001b0: 4c18 43bd f2e9 ac3d 35d7 30be 1bc4 683e
000001c0: 8c30 33be e18d 9f3e d2be 9c3e 4021 9cbe
000001d0: 3b1a a3bd 65f3 483a 61ad 4b3e 46c3 95bd
000001e0: 9578 703e b6cd 153d d957 21be a67f 303e
000001f0: 3b47 03bf 4c3e 84bd b82e 65bd b62c 67be
00000200: d876 debd ca2a 9abe 3f73 efbd ec89 ed3d
00000210: b658 9cbe 25ab 32bd 0911 703e dcd8 f7bc
00000220: 9313 9cbd a03a c23d 21d4 583d b2f8 993e
00000230: 0c56 b33e 692a 743e 5e3b 9d3e 7d35 b63c
00000240: 70db c6be a7a8 22be 1e02 8a3e 5612 a5bc
00000250: 2bf8 5ebe 36e1 95be a6ac 70be 0ecb 87be
00000260: e4bf 503d af36 083e b52e 9f3e cf00 03bf
00000270: 7db7 b33e a5d3 a1be 8090 0abd 13ce 4cbe
00000280: cd46 52be 6b3d 823d d830 c8be 2805 9bbe
00000290: 1f2a 8cbd c59b 98bc e9a8 16be fe57 003e
000002a0: f545 9fbe 1a70 943c 5476 ca3e 491f 38be
000002b0: 6a0b 0b3f c981 02bd cd5e 62be dd69 be3e
000002c0: 85ab 5f3d ecbc a4be bb8b d13e b911 efbe
000002d0: 193b 4e3c 2095 a9bc ef3e 893e 2ed4 653d
000002e0: b5a5 373e 2c6d 083e b528 8bbd fc46 47be
000002f0: d17b a9be 4c23 ab3e ea9d c13e 5214 8f3e
00000300: f8b1 86be 8277 a33d fcbf 8bbe c392 92be
00000310: f8e0 62be 515b e53d d324 aebd edfa 72bc
00000320: f86d 543e 6079 713e 6e6c 2dbe e0c3 ddbe
00000330: 3062 6fbe cdc8 ae3e 88ab 06be 5eab 923e
00000340: a5e6 ed3d 2033 c13d 93e1 a63d 7028 0cbd
00000350: cc8c a23d 6379 2abe 53bf d1bc f0f2 9f3d
00000360: 8ab4 98be 52a7 66be 62c3 b43e bd06 9dbe
00000370: b8c5 0ebd 4f1f e43e 9d57 823e f8de 933c
00000380: b566 a5be a108 473e 5fb1 a8be c587 3cbd
00000390: 03fd 25bd efec 52bd f9b9 a13d 2860 9d3e
000003a0: 90f2 a3bd 975e fc3e 14c9 6f3e 89b9 6fbe
000003b0: ec25 1c3e 369c a0be d85f 9cbe 7852 843e
000003c0: 0e63 7e3e 02b8 a63e 278b 0fbd f264 d3bc
000003d0: 3e03 c83e e9b3 18bf f3c9 c23e 3def a1be
000003e0: edad 983d 4c4a bcbd 5c03 90be 0158 143e
000003f0: dadf a73e 44d3 0bbe bbc2 79be dc9c ddbd
0.11937534 0.25656867 -0.25060222 -0.35239455 -0.33377168 0.2423641 0.07860626 0.35239807
0.040892355 0.06960135 0.048635237 -0.26779965 -0.26771444 -0.29969412 -0.09044166 0.04527285
0.0597979 0.3734473 -0.24267583 -0.14481218 0.15984513 0.3126763 -0.14806049 0.3908064
-0.030427208 0.19381662 0.3584246 -0.51855856 -0.41639513 -0.0010340458 -0.049965963 0.49123895
-0.20766325 -0.34174195 -0.2861866 -0.4334585 -0.114892654 0.37907898 0.3057584 0.15248024
0.167701 -0.38123322 0.13623293 -0.39723477 -0.2684734 -0.19149461 0.1921217 0.30761334
-0.04845462 0.0046808165 0.3790361 0.40778014 0.308397 -0.12368761 0.32164314 -0.064421825
0.074407555 -0.46981084 -0.43767303 -0.07648988 0.38575384 0.17010787 -0.083272055 0.12029518
0.38500986 -0.2177343 -0.041517198 0.052096702 0.19560753 0.41782734 -0.3566175 -0.08347483
0.112438805 0.2913384 0.34051687 0.38448492 0.11719462 -0.42189375 0.049607422 -0.2373984
-0.33263907 0.32634708 0.295126 -0.42888805 0.22926097 -0.017073108 0.056438193 -0.2343659
0.2995046 -0.4232776 0.19994675 0.27703667 0.35088453 0.11244593 -0.2419299 -0.46295932
0.30440915 0.16250949 -0.29296848 -0.33157796 0.36233863 0.26285943 -0.20445621 -0.13797385
-0.40066314 0.03710488 -0.35955045 -0.25289524 -0.047630593 0.08443059 -0.17269595 0.22731058
-0.17498988 0.31162933 0.30614334 -0.30494118 -0.079639874 0.0007665663 0.19890358 -0.07312636
0.23483498 0.036573134 -0.15756167 0.17236194 -0.51280564 -0.06457195 -0.055952758 -0.2257565
-0.108625114 -0.3011077 -0.11691903 0.11598572 -0.3053643 -0.043620247 0.23443998 -0.030254774
-0.07620921 0.09483838 0.052936677 0.30072552 0.35026586 0.23844303 0.30709356 0.022242302
-0.38839293 -0.15884648 0.2695474 -0.020150345 -0.21774356 -0.29273385 -0.2350336 -0.26522106
0.05096425 0.1330211 0.31090322 -0.5117311 0.35100928 -0.31606784 -0.033829212 -0.20000486
-0.20534821 0.06359371 -0.39099765 -0.3027737 -0.068439715 -0.018628964 -0.14712872 0.12533566
-0.3110806 0.01811986 0.39543402 -0.17980684 0.5431429 -0.031862054 -0.22106476 0.37190142
0.054606933 -0.32175386 0.40926918 -0.4669321 0.012587332 -0.020700991 0.26805827 0.056110553
0.17934306 0.13322896 -0.067948736 -0.19460672 -0.33102277 0.33425367 0.3781579 0.2794519
-0.26307654 0.07981779 -0.2729491 -0.28627595 -0.22156131 0.11199058 -0.085031174 -0.014830333
0.20745075 0.23581457 -0.16935894 -0.43313503 -0.233773 0.34137574 -0.13151371 0.28646368
0.116162576 0.094335794 0.081484936 -0.03421825 0.07937011 -0.16647868 -0.025603926 0.078100085
-0.2982524 -0.22524765 0.35305315 -0.30669203 -0.034856528 0.44555137 0.2545747 0.018050656
-0.32304922 0.19436885 -0.32947823 -0.046027917 -0.040524494 -0.05149549 0.078967996 0.30737424
-0.080052495 0.49290916 0.23416549 -0.2341062 0.15248841 -0.3136918 -0.30541873 0.2584417
0.24842474 0.32562262 -0.035044815 -0.02580497 0.39064974 -0.5964952 0.380447 -0.31627837
0.07455049 -0.091938585 -0.28127563 0.14486696 0.32787973 -0.1365481 -0.2439069 -0.10820934

fc1.bias f4 [64]
00000000: 4cec 963e 5ab7 fc3e 5729 ba3e f4a1 9b3e
00000010: 546d bdbd b376 a53e 8bc3 353e 89f2 ea3b
00000020: 20b5 edbd 54f1 23be bd4a e7bd add8 603e
00000030: d9ed 683e 179a 70bd 4808 8cbd 8839 c13e
00000040: 8eff d13e 21ca 793c e278 86be c22b c33e
00000050: fbd5 813e 4ae1 96be 47bf b93e 3cea 933e
00000060: d6c2 20be c400 b63e 85b6 f4bd 91ba 13be
00000070: 91c5 c23e 1c83 353e 6f4d b3be 41a3 f4bc
00000080: 03bd f8bd 7e9a 753d 2ad9 78bd bb3a 023f
00000090: 3d0e 213d a004 25be 2cd6 1a3e b605 403e
000000a0: 5713 a53e 58af 94be 3b4f cfbd 6835 a8be
000000b0: 6e58 cfbd a761 c33d fe53 1fbe 537f 873e
000000c0: d26e c83e e0d2 273e 74f8 afbe e20b 2abd
000000d0: 0d14 ed3d ce17 56be 169c 2b3e ce29 74be
000000e0: 2510 a6be bf8c e7be 6e7b aebc 10a8 cb3e
000000f0: 40d1 cdbe eea8 eb3e 0180 63be 943a 6f3e
0.29477155 0.49358636 0.36359665 0.30396998 -0.09249368 0.32317123 0.17750375 0.0071700257
-0.116068125 -0.16010028 -0.11293552 0.21957655 0.22746982 -0.0587407 -0.06837517 0.37739205
0.41015285 0.015245945 -0.262641 0.38119322 0.25358567 -0.29468757 0.36278746 0.28889644
-0.15699324 0.3554746 -0.11948875 -0.14426638 0.38041356 0.17725796 -0.35020015 -0.029863002
-0.12145426 0.05996179 -0.06075398 0.50870866 0.03932022 -0.16115046 0.15120763 0.18752179
0.32241318 -0.29040027 -0.10122534 -0.32853246 -0.101242885 0.0954011 -0.15559384 0.26464328
0.3914705 0.16389036 -0.34369242 -0.04151524 0.1157609 -0.20907518 0.16758761 -0.23844072
-0.32434192 -0.45224568 -0.02129909 0.3977666 -0.40198708 0.4602732 -0.22216798 0.2336219

fc2.weight f4 [3, 64]
00000000: d8f6 1d3e 5131 dcbd 60c8 3f3e 2b04 273e
00000010: b99b 893e ab75 a43d 745b 3fbe cfca 0b3e
00000020: 4f28 47bd 846e 233e c02f 4fbe 0ee5 353c
00000030: f2b3 38be efca d9bd cf2e 9fbd a0d9 c7bd
00000040: 73ab ef3d ec95 743d cab8 8e3d 859e 2ebd
00000050: 85cb 3ebc 25e4 223d 9ff9 fc3d af89 dc3d
00000060: 6128 cabb 8eef bbbd 5eff 093e 1117 75bd
00000070: bd9e fbbd d006 70b7 fe5f 77bd 149a d93d
00000080: a3d7 b4bb 34a6 1fbe bcb7 5abd 1feb 1b3e
00000090: d9ac 8d3d 79c4 183e 6f1f 2a3e 566f 303e
000000a0: d8a8 a0bd f501 693d 757d 913d 6fe6 113d
000000b0: 1f53 ca3d 6e66 00be acf7 82bc 45cd a23d
000000c0: 4375 70bd 23a1 31be 1c4a 8f3d c720 853e
000000d0: 77c5 bdbd 09cd 413e 4b77 093d a693 0a3e
000000e0: a4ed 053d 220d a3bd 33d4 bb3d 3221 353e
000000f0: 99f1 21bc e58a 243e b94c c2bc 621d 0f3e
00000100: 57c9 11be 152d 843d f5ae 37bd c008 42bd
00000110: a6d2 e4bd f4ff d03d 97b9 7c3e 9d52 98bc
00000120: 8dbc 203e 9c89 66bd d06b 7c3e 8b16 abbd
00000130: b7a6 423d 5e8b 283d 832d 993e 83f3 5d3d
00000140: 9240 143d 2a05 89bd 089d 3d3d 0f61 3a3e
00000150: 26be 01be ad00 39be 439f 9fbd 9d2c b63d
00000160: fb08 073d d7f0 593d bc58 0abe b5e7 38bd
00000170: c854 5e3d 9fb8 3c3e 07c2 29bd cacd 90bd
00000180: a8a4 73bd 0935 4a3e c106 ebbd 8521 bc3c
00000190: 0442 17be a1e6 413d 6711 5bbe adc3 3bbe
000001a0: 19ff 923e 08fa 37be 4139 94bd 73ca 2dbd
000001b0: 6f46 203d c3c1 073d ef1e 773e 93f5 d0bd
000001c0: 9a4c a3bc 7c5c d63d 3a7a e53c 1279 dfbc
000001d0: 32f2 89bd 684c 9f3c ba79 aa3d b926 e3bd
000001e0: ad2e 643e 9d5d 743d 2f73 2f3c 139b babc
000001f0: 8aae a1bd 4ff7 38be ac6b 873b 2930 c23d
00000200: c7a6 e2bd 2a1d 72be 81f7 9b3c ebf5 ae3d
00000210: e1c0 0dbe a187 5fbe 4f28 59be 1553 583c
00000220: 492b a3bd 6ee2 13be 4479 debd bfa7 fabb
00000230: 5c64 dd3c 2aa4 3b3d a818 01be b0c8 4fbe
00000240: d35f 64be 0def 0c3e 5d42 593d 0e08 2dbd
00000250: 600e 2abe 2858 b73d 7cf1 043d 1970 113d
00000260: 637f cebd 852a e8bd a483 d9bd e810 d13d
00000270: a6cd 21be feb3 30be 2156 773d e8a7 9fbd
00000280: d349 b5bd 8fe4 e7bc c59d c2bc 9d9c 50be
00000290: c6a4 ad3d 6d5f e0bc 9c00 543c 8870 4c3d
000002a0: 5710 1fbd a85a 3dbc 0826 9d3d faee d43c
000002b0: 8400 1ebe 55ff ca3d 962b 03bd 9096 10be
000002c0: c8b3 38be 9e0e 40be 8c10 a63d 29ac bfbd
000002d0: 74a0 1abe 2e2a 0bbd 1238 1abc 0b52 ba3c
000002e0: f388 f8bc 7223 f63c c9fe 743d b8ba afbd
000002f0: 9aee 28bd d4eb 2cbe 6def c6bd 67bd 5fbb
0.15426195 -0.10751594 0.18728781 0.16310184 0.2687662 0.08030256 -0.1868723 0.13651584
-0.048622426 0.15960127 -0.20233059 0.011101974 -0.18037394 -0.1063441 -0.077726 -0.097583055
0.11702623 0.05971329 0.069688395 -0.042631645 -0.0116452025 0.039768357 0.12352299 0.107684486
-0.0061693643 -0.09176551 0.13476321 -0.05983645 -0.12286136 -1.4306701e-05 -0.06039428 0.10625091
-0.00551887 -0.15590745 -0.05339788 0.1522641 0.06917734 0.14918698 0.16613553 0.17229971
-0.078447044 0.056886632 0.07104007 0.03562015 0.09879135 -0.12539074 -0.01598724 0.07949308
-0.05870558 -0.17346625 0.06996557 0.2600157 -0.09266179 0.18925871 0.033561032 0.13532886
0.032697335 -0.07961489 0.09171333 0.17688444 -0.0098842615 0.16068609 -0.023718225 0.13976052
-0.14236961 0.06453911 -0.044844586 -0.047371626 -0.111729905 0.10205069 0.24680172 -0.01859408
0.15696926 -0.05628358 0.24650502 -0.08353909 0.047522273 0.041148536 0.29917535 0.05418731
0.03619439 -0.06690438 0.046292335 0.18201087 -0.12670192 -0.18066664 -0.07794049 0.08895228
0.03296755 0.0532082 -0.13510412 -0.045142848 0.054280072 0.18429802 -0.041444805 -0.07070501
-0.0594832 0.19746794 -0.114758976 0.022965202 -0.14771277 0.047339085 -0.21393357 -0.18336363
0.2871025 -0.17966473 -0.07237483 -0.0424294 0.03912967 0.03314377 0.24132894 -0.102030896
-0.019933987 0.10466859 0.028012384 -0.02727941 -0.06735648 0.019445613 0.08323999 -0.1109137
0.2228343 0.05965959 0.010708614 -0.022779023 -0.07894619 -0.1806309 0.0041327085 0.09481842
-0.110669665 -0.23643938 0.019038917 0.08542999 -0.13843109 -0.21829082 -0.21206783 0.013203402
-0.0796724 -0.14441845 -0.10862973 -0.0076493914 0.027025394 0.045810856 -0.12607062 -0.202914
-0.22302179 0.13763066 0.053041805 -0.04224401 -0.16607046 0.08952361 0.03245686 0.035507295
-0.10082891 -0.11336235 -0.106208116 0.10208303 -0.15801105 -0.17256162 0.060384873 -0.077956975
-0.088519715 -0.028307227 -0.023756871 -0.20372243 0.08478694 -0.027389253 0.012939598 0.049912006
-0.038833942 -0.011557259 0.076732695 0.02599286 -0.15429884 0.09911982 -0.03202399 -0.14119935
-0.18037331 -0.18755576 0.08108625 -0.09359009 -0.1510027 -0.033975773 -0.009412782 0.0227442
-0.03033874 0.030046199 0.059813295 -0.08580536 -0.041243173 -0.16886836 -0.097136356 -0.0034139992

fc2.bias f4 [3]
00000000: a12d 10ba 60ed 7f3d 1621 9bbd
-0.00054999633 0.062482238 -0.0757467
