checkpoint_128.pth (torch, 4221 bytes, 4 tensors)

fc1.weight f4 [64, 6]
0.1451799 0.2369381 -0.20311469 -0.35526603 -0.3761507 0.3142029 0.08422542 0.2581105
0.02247362 0.208061 0.123560205 -0.17947042 -0.2724124 -0.2670352 -0.08578637 0.0046368362
-0.06709833 0.48037463 -0.22418909 -0.100155815 0.18607453 0.23390025 -0.23018669 0.4810075
-0.006428031 0.16640815 0.38299042 -0.5091363 -0.47205707 0.005572285 -0.19561581 0.37086913
-0.30942726 -0.16928625 -0.32867473 -0.30520198 -0.10644676 0.335047 0.30202267 0.25289297
0.22857696 -0.32943374 0.16534589 -0.3447655 -0.23290041 -0.2437363 0.03284836 0.4153118
-0.019786775 -0.018922262 0.38814002 0.47929835 0.40462735 -0.15133335 0.3322219 -0.10777179
0.08955824 -0.4444687 -0.49281877 -0.03304711 0.40940508 0.083496824 -0.08522874 0.23220296
0.47108415 -0.17208089 -0.08639481 0.025251059 0.15992306 0.41278312 -0.42729637 -0.02147242
0.08482071 0.33660915 0.31637844 0.38880673 0.13913238 -0.46016902 0.031015078 -0.19892429
-0.32165053 0.25770307 0.29756796 -0.4478428 0.26203176 -0.0993025 0.07086029 -0.10966799
0.4053309 -0.3259768 0.18703601 0.1581555 0.31851473 0.27177286 -0.17223462 -0.37060454
0.33285087 0.081505455 -0.26909447 -0.2079805 0.2785104 0.3469204 -0.1823271 -0.09566277
-0.37954152 -0.030419106 -0.41927785 -0.29904777 0.02855209 0.01193357 -0.114740886 0.32996127
-0.21667798 0.410704 0.30186158 -0.3640638 -0.10501782 0.10966807 0.2870965 -0.054158267
0.23056862 -0.039423864 -0.16181116 0.24334751 -0.5670731 0.037691325 -0.07284329 -0.18719332
-0.052704033 -0.32766536 -0.122617915 0.09620413 -0.33504665 -0.062777035 0.21049105 -0.070765086
-0.15278222 0.2050381 0.020890748 0.18398935 0.29231519 0.36945853 0.2750506 0.078273244
-0.43863776 -0.28257254 0.24520038 0.1726941 -0.20039465 -0.2079217 -0.21521237 -0.34030592
0.054475226 0.26489726 0.3832703 -0.42723143 0.3338453 -0.3804841 -0.051576223 -0.192072
-0.2922237 0.12399749 -0.4944859 -0.32790026 -0.14507793 -0.028154738 -0.03917421 0.09593648
-0.319242 -0.02146351 0.38086513 -0.089057796 0.608509 -0.04272618 -0.24608248 0.29470938
0.014851299 -0.23144968 0.41977006 -0.36555135 -0.06391252 -0.0032569289 0.23469493 -0.0029629408
0.20494984 0.18850096 0.0015134678 -0.20940207 -0.25602335 0.3638925 0.2707288 0.37595275
-0.31267777 0.00027170044 -0.24918081 -0.22381146 -0.1472929 0.16533898 -0.07632143 -0.071041115
0.20320578 0.33263126 -0.11292544 -0.39243606 -0.2642323 0.30219314 -0.10911003 0.27898282
0.09135072 0.14723031 0.0874443 -0.1116719 0.09436184 -0.063413784 -0.12119903 0.19233648
-0.26055396 -0.22658993 0.39648834 -0.33116236 -0.10157213 0.51563686 0.38324523 -0.08104909
-0.19766729 0.31219178 -0.39686668 0.039530423 -0.00833196 -0.016599698 0.11397506 0.24617504
-0.16774671 0.57154524 0.20548874 -0.25059557 0.11484145 -0.3570705 -0.4218924 0.30311778
0.26701808 0.25977916 -0.04193323 0.06464804 0.46785164 -0.54388225 0.37322322 -0.37855566
0.08009992 -0.09065295 -0.34120438 0.20941402 0.38917562 -0.1947285 -0.17650045 -0.064903714
00000000: 0aaa 143e e79f 723e 4cfd 4fbe 6ee5 b5be
00000010: d396 c0be 34df a03e 617e ac3d 0f27 843e
00000020: 991a b83c f10d 553e 220d fd3d 18c7 37be
00000030: a379 8bbe d6b8 88be c4b0 afbd 9af0 973b
00000040: d96a 89bd aaf3 f53e d391 65be 7e1e cdbd
00000050: 528a 3e3e 8c83 6f3e 0fb6 6bbe 9d46 f63e
00000060: 3ba2 d2bb e666 2a3e 5217 c43e c256 02bf
00000070: 77b1 f1be b797 b63b 834f 48be 8fe2 bd3e
00000080: 406d 9ebe 6059 2dbe 0e48 a8be 6f43 9cbe
00000090: c200 dabd 488b ab3e b7a2 9a3e 307b 813e
000000a0: 1410 6a3e 8aab a8be 6f50 293e 1b85 b0be
000000b0: 727d 6ebe 0296 79be 008c 063d c0a3 d43e
000000c0: e017 a2bc dc02 9bbc 4aba c63e 9866 f53e
000000d0: 512b cf3e 21f7 1abe fd18 aa3e 75b7 dcbd
000000e0: 4f6a b73d 6791 e3be be52 fcbe 685c 07bd
000000f0: 8b9d d13e 6200 ab3d 688c aebd 9dc6 6d3e
00000100: f131 f13e f935 30be c3ef b0bd 4fdb ce3c
00000110: dfc2 233e 4f58 d33e 97c6 dabe eee6 afbc
00000120: 7bb6 ad3d 0958 ac3e 5bfc a13e ad11 c73e
00000130: b878 0e3e 469b ebbe 5513 fe3c cfb2 4bbe
00000140: 61af a4be a8f1 833e d45a 983e a74b e5be
00000150: 0729 863e 1c5f cbbd 331f 913d 9c99 e0bd
00000160: 8887 cf3e 6ee6 a6be 5e86 3f3e 84f3 213e
00000170: 5d14 a33e d025 8b3e 465e 30be e1bf bdbe
00000180: 6e6b aa3e 55ec a63d c0c6 89be d7f8 54be
00000190: ea98 8e3e 8d9f b13e f5b3 3abe d8ea c3bd
000001a0: 4453 c2be 7d31 f9bc 96ab d6be ca1c 99be
000001b0: 13e6 e93c 0585 433c 45fd eabd aff0 a83e
000001c0: d5e0 5dbe cb47 d23e 9a8d 9a3e 9266 babe
000001d0: 9513 d7bd a799 e03d 50fe 923e 0fd5 5dbd
000001e0: 2e1a 6c3e eb7a 21bd d3b1 25be 1730 793e
000001f0: b42b 11bf 3862 1a3d dd2e 95bd 9baf 3fbe
00000200: 2fe0 57bd c1c3 a7be 1a1f fbbd ac06 c53d
00000210: 3c8b abbe 3f91 80bd f78a 573e 49ed 90bd
00000220: f172 1cbe 82f5 513e 1323 ab3c b467 3c3e
00000230: 56aa 953e ab29 bd3e 6fd3 8c3e b94d a03d
00000240: 2195 e0be 59ad 90be cf15 7b3e b9d6 303e
00000250: 4134 4dbe 6de9 54be a260 5cbe 943c aebe
00000260: 6a21 5f3d 9da0 873e 013c c43e 14be dabe
00000270: c5ed aa3e d0ce c2be 9741 53bd 86ae 44be
00000280: 589e 95be 65f2 fd3d 422d fdbe 8be2 a7be
00000290: 4f8f 14be c4a4 e6bc 2375 20bd 587a c43d
000002a0: b073 a3be 3ed4 afbc c100 c33e ef63 b6bd
000002b0: 3fc7 1b3f a601 2fbd 0cfd 7bbe 26e4 963e
000002c0: dd52 733c 2501 6dbe 1aec d63e 8c29 bbbe
000002d0: 91e4 82bd 3372 55bb de53 703e e62d 42bb
000002e0: 5fde 513e 6506 413e 8d5f c63a 7f6d 56be
000002f0: 7e15 83be 1e50 ba3e f79c 8a3e e17c c03e
00000300: 4d17 a0be 0473 8e39 4129 7fbe d52e 65be
00000310: f3d3 16be 9f4e 293e 694e 9cbd 017e 91bd
00000320: 2d15 503e a54e aa3e 7445 e7bd 61ed c8be
00000330: 7549 87be 0fb9 9a3e 1475 dfbd d6d6 8e3e
00000340: 1616 bb3d 8bc3 163e ff15 b33d 3db4 e4bd
00000350: c840 c13d 16df 81bd 3237 f8bd dbf3 443e
00000360: 5467 85be 3107 68be 8500 cb3e 1d8e a9be
00000370: 0d05 d0bd c700 043f b838 c43e 11fd a5bd
00000380: 4b69 4abe 9ad7 9f3e 1c32 cbbe a7ea 213d
00000390: c682 08bc 17fc 87bc c26b e93d 4f15 7c3e
000003a0: cbc5 2bbe ca50 123f a46b 523e 104e 80be
000003b0: fe31 eb3d f2d1 b6be 4802 d8be 4132 9b3e
000003c0: 98b6 883e c601 853e 2ec2 2bbd 3166 843d
000003d0: 408a ef3e de3b 0bbf 1d17 bf3e 0cd2 c1be
000003e0: 6d0b a43d 41a8 b9bd 57b2 aebe a170 563e
000003f0: 0742 c73e e866 47be 89bc 34be 3dec 84bd

fc1.bias f4 [64]
0.31611708 0.484203 0.3424116 0.3203707 -0.08119162 0.14978923 0.18446238 0.015718473
-0.07173103 -0.1672151 -0.07957416 0.16127029 0.2050937 -0.020743297 -0.046599235 0.3590434
0.39856878 0.025713485 -0.18504275 0.36512914 0.24248113 -0.35666224 0.32087794 0.215241
-0.2696186 0.36915004 -0.12788913 -0.12852322 0.36653456 0.13300425 -0.35683757 -0.018224215
-0.1736729 0.071281455 -0.09371622 0.4724942 0.08138795 -0.04878067 0.18280636 0.17018636
0.34287044 -0.29189092 -0.058264684 -0.35298193 -0.08792539 0.081228584 -0.1286271 0.29792047
0.37571073 0.17647108 -0.405136 -0.0734034 0.084171996 -0.21080163 0.08770614 -0.25517258
-0.30130827 -0.42424655 -0.010430396 0.38318676 -0.44535428 0.43629435 -0.35097736 0.19945799
00000000: 19da a13e 75e9 f73e 9350 af3e a107 a43e
00000010: cb47 a6bd 5962 193e b5e3 3c3e 07c4 803c
00000020: b8e7 92bd 6f3a 2bbe c7f7 a2bd 0a24 253e
00000030: 1504 523e d9ed a9bc d7de 3ebd 89d4 b73e
00000040: 3511 cc3e 16a5 d23c d97b 3dbe 35f2 ba3e
00000050: f94c 783e 6f9c b6be 1d4a a43e 2368 5c3e
00000060: 730b 8abe 3c01 bd3e 5ef5 02be 979b 03be
00000070: 6baa bb3e 4432 083e 6ab3 b6be f34a 95bc
00000080: 4fd7 31be 03fc 913d 4aee bfbd c3ea f13e
00000090: baae a63d 3dce 47bd 9731 3b3e 5545 2e3e
000000a0: b78c af3e ba72 95be f3a6 6ebd 0cba b4be
000000b0: 3a12 b4bd 2c5b a63d d3b6 03be 0889 983e
000000c0: 285d c03e d6b4 343e fc6d cfbe 8654 96bd
000000d0: 5e62 ac3d 62dc 57be 479f b33d fba5 82be
000000e0: 1445 9abe d836 d9be 40e4 2abc 0e31 c43e
000000f0: 7a05 e4be f961 df3e 4eb3 b3be b73e 4c3e

fc2.weight f4 [3, 64]
0.18518373 -0.13314727 0.22853233 0.23347136 0.26864064 0.08722019 -0.21938811 0.15111102
-0.11358868 0.17128387 -0.2719423 0.029963423 -0.20526345 -0.109576955 -0.0991457 -0.10510563
0.0897886 0.08933751 0.1809759 -0.063222595 0.022899682 -0.013097586 0.14367837 0.08140863
0.040243447 -0.14858986 0.17972317 -0.09619825 -0.17411453 -0.025525011 -0.10998098 0.09398596
-0.020993818 -0.161172 -0.05905349 0.14832835 0.15589695 0.21944304 0.23962615 0.21821488
-0.12086148 0.13449171 0.14586766 -0.00050064997 0.06302915 -0.093553424 -0.049499203 0.14125031
-0.10651055 -0.21392103 0.0883713 0.28539285 -0.08588373 0.25426176 0.0040136212 0.22195536
0.0074826847 -0.114987604 0.17456582 0.20924503 -0.03900071 0.21024676 -0.049404155 0.14056836
-0.19916056 0.06127911 -0.06273911 -0.058234688 -0.15815061 0.040757496 0.22607695 -0.028825844
0.23958603 -0.10974662 0.28734624 -0.057268243 0.05460138 0.020033646 0.26051787 0.03480792
0.04500982 -0.11345274 0.0039699017 0.2169493 -0.13780387 -0.12908757 -0.083288126 0.13417923
-0.054274343 0.07080465 -0.17453566 0.004620442 0.07028682 0.11106436 0.014037973 -0.007988403
-0.060878824 0.16299209 -0.09784274 0.030243428 -0.22972624 0.020429103 -0.22745803 -0.21928622
0.2756101 -0.22499552 -0.10596877 -0.03873665 0.119767845 -0.020377131 0.26862508 -0.093059264
0.012193919 0.09400127 0.0013016938 -0.07015673 -0.030101765 -0.03397199 0.08930858 -0.1428418
0.22432935 0.11794601 -0.0034939775 -0.015465755 -0.080713965 -0.20189485 -0.010314019 0.10993564
-0.06046328 -0.16509412 -0.0022723374 -0.0017713676 -0.046438202 -0.099935375 -0.102236494 0.027676782
-0.0898623 -0.066729344 -0.05493145 -0.08407431 0.07942527 0.12430756 -0.0047014207 -0.13624269
-0.17358817 0.1769829 -0.038968503 -0.047101777 -0.20866856 0.14492509 0.012891965 0.018983651
-0.054182645 -0.03501788 -0.1187781 0.12937656 -0.07754467 0.0023883004 0.12008044 -0.11981326
-0.04818759 0.05979875 -0.016801659 -0.20170401 0.06923352 -0.105908796 -0.07686358 0.030419337
0.064580925 -0.06819331 0.0054734107 0.11768828 -0.19694644 0.15779465 0.0046658562 -0.23373409
-0.13086367 -0.08778939 0.09578458 -0.05984193 -0.21478117 -0.06005444 0.053415652 -0.05941749
0.028635668 -0.012557358 -0.027979443 -0.14821073 0.048032667 -0.21499416 0.02298703 -0.018813383
00000000: cea0 3d3e c257 08be 6104 6a3e 1e13 6f3e
00000010: 448b 893e 80a0 b23d 47a7 60be d9bc 1a3e
00000020: 2fa1 e8bd 0a65 2f3e 053c 8bbe da75 f53c
00000030: 9530 52be e269 e0bd e70c cbbd 9f41 d7bd
00000040: 16e3 b73d 96f6 b63d bf51 393e d97a 81bd
00000050: 1d98 bb3c 4297 56bc 6c20 133e 91b9 a63d
00000060: 50d6 243d f127 18be 5a09 383e 9703 c5bd
00000070: 144b 32be d419 d1bc b53d e1bd b67b c03d
00000080: 3afb abbc 460a 25be 13e2 71bd 63e3 173e
00000090: 73a3 1f3e adb5 603e 8f60 753e b973 5f3e
000000a0: 3986 f7bd 32b8 093e 555e 153e 0d3e 03ba
000000b0: 6d15 813d f098 bfbd adbf 4abd eca3 103e
000000c0: 3422 dabd 1d0e 5bbe 03fc b43d 031f 923e
000000d0: cfe3 afbd 992e 823e b284 833b 4448 633e
000000e0: 4f31 f53b 9f7e ebbd 62c1 323e 5444 563e
000000f0: 35bf 1fbd ed4a 573e 035c 4abd 27f1 0f3e
00000100: bff0 4bbe ceff 7a3d 5d7d 80bd 7f87 6ebd
00000110: 3cf2 21be 55f1 263d b780 673e 2d24 ecbc
00000120: 0a56 753e d6c2 e0bd 0c1f 933e 1b92 6abd
00000130: b2a5 5f3d 9a1d a43c 9962 853e c092 0e3d
00000140: 385c 383d e959 e8bd f315 823b f527 5e3e
00000150: 751c 0dbe 882f 04be f792 aabd 4866 093e
00000160: c64e 5ebd 0702 913d 7ab9 32be 1467 973b
00000170: 89f2 8f3d b675 e33d 87ff 653c cae1 02bc
00000180: 135c 79bd 66e7 263e c661 c8bd 11c1 f73c
00000190: 5b3d 6bbe ef5a a73c c2ea 68be 918c 60be
000001a0: c41c 8d3e 3a65 66be 2806 d9bd 52aa 1ebd
000001b0: d848 f53d f1ed a6bc 3a89 893e db95 bebd
000001c0: 01c9 473c bd83 c03d 999d aa3a 55ae 8fbd
000001d0: fa97 f6bc 3726 0bbd 6be7 b63d 1f45 12be
000001e0: 98b6 653e ad8d f13d 37fb 64bb 1464 7dbc
000001f0: 5d4d a5bd 86bd 4ebe 22fc 28bc f025 e13d
00000200: 58a8 77bd 6f0e 29be 7feb 14bb 3c2d e8ba
00000210: fc35 3ebd ebaa ccbd 5e61 d1bd 6bba e23c
00000220: ba09 b8bd 65a9 88bd cdff 60bd 272f acbd
00000230: b7a9 a23d f694 fe3d 600e 9abb 3483 0bbe
00000240: 19c1 31be 013b 353e 709d 1fbd cbed 40bd
00000250: 36ad 55be 3e67 143e d238 533c 9a83 9b3c
00000260: 9fee 5dbd e96e 0fbd ef41 f3bd 4a7b 043e
00000270: bdcf 9ebd 0885 1c3b bcec f53d a860 f5bd
00000280: 5a60 45bd 89ef 743d a2a3 89bc 7f8b 4ebe
00000290: 4eca 8d3d b6e6 d8bd a76a 9dbd f931 f93c
000002a0: 0143 843d efa8 8bbd 4c5a b33b 8e06 f13d
000002b0: 54ac 49be ec94 213e 0ae4 983b fd57 6fbe
000002c0: 2001 06be ecca b3bd b52a c43d d01c 75bd
000002d0: 98ef 5bbe a5fb 75bd 5fca 5a3d c15f 73bd
000002e0: 5995 ea3c 60bd 4dbc 2535 e5bc 8ec4 17be
000002f0: e7bd 443d 6e27 5cbe 4c4f bc3c 861e 9abc

fc2.bias f4 [3]
-0.013627817 0.0769814 -0.06629079
00000000: 3547 5fbc 6da8 9d3d 77c3 87bd
